model/model.pth (torch, 30415 bytes, 4 tensors)

linear1.weight f4 [512, 9]
-0.6545023 0.10233937 0.14929228 -0.1817494 0.0089526605 0.23611268 0.18108219 0.17376594
0.07105624 0.49110943 -0.087526076 0.2150262 0.46708813 0.5875496 -0.75598735 -0.42373636
-0.16383018 -0.2413225 0.29713088 -0.14651117 0.44023687 -0.038853504 0.3288417 -0.1416382
0.09741583 0.02153722 -0.02108858 0.035688814 0.29193842 -0.27192944 -0.119693 0.07589099
-0.040883306 0.34912404 0.19749652 0.15139137 0.3977585 -0.08511788 0.0733219 0.3805406
0.4036528 0.31740198 0.016420834 0.29764226 0.08023406 0.2729064 0.36975348 -0.1498343
0.00022174821 0.12984325 -0.04586259 0.279069 0.10781199 0.034996044 -0.024926469 0.398715
0.40255803 -0.04491374 -0.050577518 0.35734022 0.059601538 -0.14918107 0.16453491 0.09240657
-0.20389433 0.20514765 0.22561353 0.23245502 0.11880334 0.064469144 0.15882885 0.11727545
0.15043451 -0.40292 -0.124783024 0.37265822 -0.20034781 0.31172597 0.2614032 -0.09302798
-0.01281693 -0.0056985915 -0.035143346 -0.102528095 -0.20477676 -0.12751886 -0.16247015 -0.33307108
-0.2990619 -0.15818247 0.23810737 0.68266165 0.2691741 -0.5739551 -0.12436842 0.11690675
0.45867315 -0.27896693 0.14085299 0.19088028 0.12804143 0.1644762 -0.025225386 0.27559653
0.33892554 0.093856186 -0.04369404 0.3331038 -0.21102765 0.104496345 0.08405631 -0.19221784
0.2777242 0.31703836 -0.14606194 0.27313578 0.14359827 0.38379568 0.1611741 -0.2730152
0.3246192 0.02394078 0.34091586 -0.27300233 0.14820091 0.044595994 -0.3046412 -0.328137
-0.25153953 -0.13570535 0.050488833 -0.2102915 0.06729487 0.13658673 0.25879714 0.060801953
0.014621228 -0.31906828 -0.308083 -0.21814406 -0.31946552 0.11397445 -0.3087325 0.19273344
0.35973507 -0.069339074 0.30056992 -0.29909474 0.3250142 -0.11276698 0.061810043 0.2725364
-0.11408563 -0.05681921 0.074309535 -0.06410296 0.017247941 0.316599 0.31686428 0.009091324
-0.01892839 0.15226091 -0.15776154 0.3795463 -0.7259176 0.324213 -0.14726757 0.5295986
0.10216042 0.21213871 0.26365697 -0.18446733 0.37510923 -0.09159601 0.017965283 0.34662572
-0.27143082 0.39976054 0.4507887 -0.20563585 -0.21823913 -0.05322503 0.15411139 -0.2047619
0.22053967 0.36760154 -0.18480414 -0.115724325 -0.19439562 0.013698194 0.1695147 0.32102108
0.31198332 0.38035873 0.40453663 0.16851981 0.086451314 -0.056234293 -0.13795623 -0.044708613
0.15604433 0.0133944005 -0.20914781 0.3328417 -0.083980806 0.2587531 0.19045179 -0.096120246
-0.56079966 -0.359883 0.40460688 0.055246495 0.17820896 -0.39843827 0.134727 -0.20885453
0.47551802 -0.26477087 -0.06316317 -0.49781317 -0.19413853 -0.17715047 0.049735744 -0.008795409
-0.24183275 -0.15320964 0.13696481 0.2456533 0.013464066 0.08034863 -0.30920103 0.21711473
0.17301494 0.25721306 0.25218508 -8.9069006e-05 0.4017187 -0.025474897 0.040777303 0.36519477
0.19765101 -0.017807875 -0.16415317 0.3714829 -0.0682845 -0.16341245 -0.007848078 0.2499755
0.2522006 0.3139412 0.33343375 -0.02619497 0.5169786 -0.5302842 -0.15766509 -0.42052603
00000000: 768d 27bf 4e97 d13d 13e0 183e 841c 3abe
00000010: 2eae 123c 86c7 713e 9c6d 393e b3ef 313e
00000020: ef85 913d b272 fb3e df40 b3bd d42f 5c3e
00000030: 2d26 ef3e a769 163f 6388 41bf f9f3 d8be
00000040: 19c3 27be 3f1d 77be 8a21 983e 0607 16be
00000050: ba66 e13e da24 1fbd f05d a83e 9b09 11be
00000060: f381 c73d d36e b03c f5c1 acbc 6f2e 123d
00000070: f478 953e 563a 8bbe 9b21 f5bd bc6c 9b3d
00000080: 4175 27bd 63c0 b23e 873c 4a3e 5706 1b3e
00000090: 01a7 cb3e 4852 aebd cb29 963d 38d6 c23e
000000a0: 94ab ce3e 8382 a23e fc84 863c 9164 983e
000000b0: c151 a43d 63ba 8b3e 5450 bd3e 2a6e 19be
000000c0: 1585 6839 a1f5 043e 69da 3bbd 22e2 8e3e
000000d0: 88cc dc3d 0358 0f3d 9832 ccbc 5f24 cc3e
000000e0: 161c ce3e 78f7 37bd 5f2a 4fbd 4cf5 b63e
000000f0: be20 743d ecc2 18be d77b 283e a83f bd3d
00000100: adc9 50be 3a12 523e 3c07 673e b008 6e3e
00000110: 2a4f f33d 6608 843d 08a4 223e 1c2e f03d
00000120: 810b 1a3e 884b cebe 3e8e ffbd 0fcd be3e
00000130: fa27 4dbe 8c9a 9f3e a4d6 853e 7485 bebd
00000140: 1afe 51bc 40bb babb 78f2 0fbd 40fa d1bd
00000150: 00b1 51be 4e94 02be 935e 26be 4b88 aabe
00000160: a41e 99be 96fa 21be 6bd2 733e eac2 2e3f
00000170: 30d1 893e b9ee 12bf dfb4 febd ce6c ef3d
00000180: 35d7 ea3e c1d4 8ebe c43b 103e 1f76 433e
00000190: 4b1d 033e 736c 283e 78a5 cebc fd1a 8d3e
000001a0: a687 ad3e ac37 c03d 86f8 32bd 958c aa3e
000001b0: a217 58be 2e02 d63d b725 ac3d c1d4 44be
000001c0: de31 8e3e da52 a23e 4391 15be 74d8 8b3e
000001d0: 6d0b 133e de80 c43e d30a 253e a6c8 8bbe
000001e0: 7d34 a63e 741f c43c 868c ae3e f6c6 8bbe
000001f0: fbc1 173e 4aaa 363d eef9 9bbe 9301 a8be
00000200: cac9 80be 58f6 0abe 61cd 4e3d a856 57be
00000210: e5d1 893d 64dd 0b3e 0f81 843e 780b 793d
00000220: e08d 6f3c eb5c a3be 0ebd 9dbe 2861 5fbe
00000230: fc90 a3be 706b e93d 3012 9ebe ea5b 453e
00000240: 322f b83e a501 8ebd 4de4 993e f222 99be
00000250: 4368 a63e 60f2 e6bd 872c 7d3d e489 8b3e
00000260: baa5 e9bd 43bb 68bd 992f 983d 6a48 83bd
00000270: 8e4b 8d3c 4419 a23e 093c a23e c7f3 143c
00000280: b60f 9bbc 49ea 1b3e 3e8c 21be e553 c23e
00000290: bcd5 39bf 3fff a53e 4fcd 16be c693 073f
000002a0: 7b39 d13d e43a 593e 0cfe 863e 01e5 3cbe
000002b0: 510e c03e b096 bbbd ee2b 933c ed78 b13e
000002c0: fbf8 8abe 6aad cc3e c7cd e63e 3492 52be
000002d0: 147a 5fbe 7d02 5abd 60cf 1d3e 1aad 51be
000002e0: 27d5 613e 4536 bc3e 4c3d 3dbe e000 edbd
000002f0: a50f 47be 646e 603c 4395 2d3e e05c a43e
00000300: 47bc 9f3e 61be c23e 6d1f cf3e 7590 2c3e
00000310: 630d b13d ee55 66bd 6644 0dbe 6120 37bd
00000320: 16ca 1f3e 3074 5b3c d82a 56be 3a6a aa3e
00000330: 21fe abbd 497b 843e cb05 433e b1da c4bd
00000340: 9190 0fbf 9642 b8be a228 cf3e 264a 623d
00000350: 697c 363e 1a00 ccbe e0f5 093e f6dd 55be
00000360: 1977 f33e 0c90 87be b15b 81bd 5ee1 febe
00000370: 40cc 46be ef66 35be b5b7 4b3d 9f1a 10bc
00000380: 01a3 77be fde2 1cbe 8140 0c3e 8a8c 7b3e
00000390: 6398 5c3c d38d a43d 994f 9ebe 5353 5e3e
000003a0: d42a 313e 6eb1 833e 671e 813e 8fca bab8
000003b0: 13ae cd3e bbb0 d0bc 1a06 273d cffa ba3e
000003c0: 0765 4a3e d2e1 91bc c517 28be 0233 be3e
000003d0: bed8 8bbd 9855 27be 3a95 00bc 94f9 7f3e
000003e0: 7020 813e e7bc a03e d4b7 aa3e d596 d6bc
000003f0: b658 043f b5c0 07bf f572 21be 304f d7be

linear1.bias f4 [512]
0.6027132 0.01539863 1.0336199 1.2827271 0.81368 1.176057 1.1904353 1.2535686
0.95607 -0.08078846 -0.05299423 1.381423 1.3750967 0.8534824 -0.32495192 -0.31456208
1.111688 1.305007 0.31574875 1.1042719 1.3677504 1.0178715 1.0882013 0.24573937
0.45252842 1.2160208 1.051012 1.3321803 0.19530116 1.0134265 1.3402307 0.5551935
0.39001203 1.1243742 -0.28001723 1.3087316 -0.24991734 1.3616322 1.4006178 0.8949937
1.3818177 1.3695248 -0.09418613 1.1565275 0.07644262 1.1013383 1.0323169 0.46376815
0.8508291 1.1161385 1.2432662 1.1176076 1.1452105 1.0331615 1.1366123 1.2266662
1.2066158 -0.02791613 0.80406106 1.380116 0.8878428 1.2160624 1.0995128 1.0747787
-0.24229427 -0.032673914 0.56569123 1.1038382 0.13606293 0.6494012 0.5946219 0.084453285
0.4847125 0.39569005 0.8875991 0.49181023 1.2103583 1.281017 0.6132957 1.0624295
1.1146873 0.095668525 1.2622403 0.8450583 1.0959847 0.40515307 -0.27923223 0.31528857
1.1812582 1.1219443 1.2733154 0.47432518 -0.19530487 0.53393537 1.0709578 0.46423993
0.4339849 -0.27853438 1.1998999 -0.10166021 0.30180892 1.2922931 0.5907436 0.74495876
1.2565875 0.8483361 0.907122 -0.10699653 -0.2758311 1.054782 0.5258142 0.29549164
1.0215496 0.7100678 1.0225897 1.0561161 1.0905099 0.8090513 0.65472466 0.2519942
0.33812526 1.1436628 1.2847277 1.1796079 0.7706286 1.3334478 0.112233214 0.80660826
1.2055671 -0.33218217 1.084529 1.0693228 -0.004039819 0.9899546 0.18350188 -0.24200143
1.0943134 -0.32162488 1.3645056 1.1923074 1.0274087 -0.30806205 1.2239338 0.8536084
1.2846444 -0.319173 1.0710994 0.33812 0.28607145 0.9157321 1.3244135 1.1165407
0.8376995 1.1114352 -0.2979059 1.1251414 1.3036306 1.1643648 0.74914694 0.75608015
0.28004178 0.16224745 0.19169645 0.36941266 1.3000259 1.0636907 1.0239143 0.68396497
1.202427 1.3647661 1.2280519 1.3104777 0.2370878 -0.33248574 1.0753753 0.97567284
0.00095885794 1.0181191 1.3401524 -0.068892956 0.9627479 0.50448126 -0.1430906 0.54575586
-0.09523929 1.212007 1.3895004 0.56872696 0.66226566 1.005323 0.9147195 0.86590827
0.8354975 -0.009580733 1.300532 0.6786202 1.1189651 1.1625948 1.0353143 1.1953332
1.1160638 0.2511121 1.1026214 1.0189534 -0.37390855 0.48181105 1.3171772 1.1436934
1.1427801 1.0230695 1.2380321 0.86196464 0.9319652 -0.19064367 1.0648636 0.80687326
1.2101663 1.255164 0.88929427 1.197466 1.0610949 0.6287527 0.91728246 -0.31618592
0.30281192 0.97485983 0.5274515 0.36829245 0.5148063 1.024582 0.890866 0.8598962
1.3071749 0.43488562 0.89582944 0.5980663 1.0808039 1.38982 0.21616726 1.0126431
0.30642438 0.7022893 1.3719468 0.78736395 1.168899 1.1964653 1.1529012 -0.04718067
0.93511796 0.7784331 0.14744525 1.330151 0.15982877 0.9700771 0.84349513 -0.101461455
00000000: 6a4b 1a3f 894a 7c3c a84d 843f 6730 a43f
00000010: 554d 503f 0989 963f 2f60 983f f074 a03f
00000020: 01c1 743f 6c74 a5bd 7a10 59bd 78d2 b03f
00000030: 2b03 b03f d37d 5a3f 1960 a6be 480e a1be
00000040: cb4b 8e3f 780a a73f d2a9 a13e c858 8d3f
00000050: 7212 af3f 9d49 823f 2e4a 8b3f 1aa3 7b3e
00000060: ceb1 e73e 92a6 9b3f 9087 863f e284 aa3f
00000070: 07fd 473e f6b7 813f ae8c ab3f 2921 0e3f
00000080: a8af c73e 7eeb 8f3f 6b5e 8fbe 8484 a73f
00000090: 55ea 7fbe f749 ae3f 7247 b33f 4f1e 653f
000000a0: 67df b03f 974c af3f a8e4 c0bd 1809 943f
000000b0: f38d 9c3d a7f8 8c3f f622 843f 0573 ed3e
000000c0: f0cf 593f a0dd 8e3f 5923 9f3f c40d 8f3f
000000d0: 4296 923f a33e 843f 837c 913f 6603 9d3f
000000e0: 6372 9a3f 5eb0 e4bc f2d6 4d3f a4a7 b03f
000000f0: aa49 633f efa7 9b3f d6bc 8c3f 5992 893f
00000100: fd1b 78be 15d5 05bd 24d1 103f 924a 8d3f
00000110: 1554 0b3e 283f 263f 2439 183f d8f5 ac3d
00000120: 3d2c f83e e397 ca3e b239 633f 8dce fb3e
00000130: 05ed 9a3f 5df8 a33f f200 1d3f b1fd 873f
00000140: 13ae 8e3f dced c33d 1791 a13f be55 583f
00000150: 3a49 8c3f 3970 cf3e 87f7 8ebe 816d a13e
00000160: 7833 973f df9b 8f3f 00fc a23f c0da f23e
00000170: 00fe 47be fdaf 083f 2515 893f dbb0 ed3e
00000180: 4533 de3e 0f9c 8ebe 5296 993f 3a33 d0bd
00000190: b386 9a3e dc69 a53f f93a 173f 9eb5 3e3f
000001a0: dcd7 a03f 8e2c 593f 2639 683f ff20 dbbd
000001b0: bc39 8dbe 1903 873f c29b 063f ae4a 973e
000001c0: 23c2 823f 01c7 353f 38e4 823f d02e 873f
000001d0: d495 8b3f fc1d 4f3f 099c 273f 6205 813e
000001e0: c11e ad3e 8b63 923f f571 a43f 64fd 963f
000001f0: ea47 453f 6bae aa3f 87da e53d e17d 4e3f
00000200: 0650 9a3f c813 aabe d9d1 8a3f 92df 883f
00000210: 7560 84bb aa6d 7d3f ebe7 3b3e 39cf 77be
00000220: 7612 8c3f 04ac a4be 1fa8 ae3f 879d 983f
00000230: 2182 833f 4fba 9dbe dda9 9c3f 1586 5a3f
00000240: 3a6f a43f a56a a3be c919 893f 111e ad3e
00000250: f577 923e 6b6d 6a3f 6286 a93f ceea 8e3f
00000260: 7973 563f 8243 8e3f 1f87 98be a204 903f
00000270: 5edd a63f e809 953f 18c8 3f3f 788e 413f
00000280: a361 8f3e 3224 263e 134c 443e a823 bd3e
00000290: 4067 a63f 0427 883f a00f 833f 5418 2f3f
000002a0: 21e9 993f a8b0 ae3f ce30 9d3f bcbd a73f
000002b0: 25c7 723e 923b aabe e6a5 893f b2c5 793f
000002c0: de5b 7b3a ba51 823f 1d8a ab3f c017 8dbd
000002d0: a576 763f af25 013f 5886 12be a8b6 0b3f
000002e0: d10c c3bd 0c23 9b3f 26db b13f 1798 113f
000002f0: 3e8a 293f 6dae 803f 0f2b 6a3f 2aac 5d3f
00000300: 2ae3 553f 82f8 1cbc d577 a63f 0eba 2d3f
00000310: 403a 8f3f e8cf 943f 2e85 843f ae00 993f
00000320: 2edb 8e3f c491 803e b322 8d3f 116d 823f
00000330: f170 bfbe f0af f63e 4399 a83f 8c64 923f
00000340: 9e46 923f f1f3 823f d677 9e3f b7a9 5c3f
00000350: 4595 6e3f 1838 43be 734d 883f 3f8f 4e3f
00000360: bbe6 9a3f 37a9 a03f caa8 633f 9146 993f
00000370: f5d1 873f f0f5 203f 06d3 6a3f 1fe3 a1be
00000380: 2a0a 9b3e 6a90 793f 1007 073f d490 bc3e
00000390: 58ca 033f 8125 833f cb0f 643f 2822 5c3f
000003a0: 8251 a73f 54a9 de3e 1455 653f df1a 193f
000003b0: c857 8a3f 9fe5 b13f f35a 5d3e 4a9e 813f
000003c0: a8e3 9c3e 3bc9 333f f49b af3f af90 493f
000003d0: 7c9e 953f c625 993f 4492 933f 8540 41bd
000003e0: e463 6f3f 6447 473f e3fb 163e 6342 aa3f
000003f0: 27aa 233e f956 783f 4cef 573f 06cb cfbd

linear2.weight f4 [4, 512]
-0.011245613 -0.61467886 -0.3302735 -0.27437618 -0.27613303 -0.25372532 -0.24178822 -0.31450906
-0.2825953 -0.03956914 0.24055807 -0.329198 -0.3063491 -0.26227224 0.0003861637 -0.0061276704
-0.3480438 -0.33288056 -0.16041893 -0.21832274 -0.29716536 -0.1888778 -0.21327218 -0.10166824
-0.40083918 -0.21330646 -0.2527528 -0.32963067 -0.4665033 -0.32266176 -0.30374286 -0.27151898
-0.07218205 -0.2482409 0.018485252 -0.3190882 0.29599088 -0.26928973 -0.3781199 -0.37709546
-0.26814097 -0.25723842 0.01900165 -0.2415676 -0.18916765 -0.20606914 -0.20104134 -0.24199463
-0.5645762 -0.25792134 -0.28180614 -0.24660225 -0.28343323 -0.35668817 -0.3520882 -0.27033514
-0.21656886 0.09749903 -0.22800602 -0.30654076 -0.30128315 -0.31585857 -0.26793286 -0.17486167
0.48720038 -0.49415419 0.09188697 -0.28221473 -0.38517088 -0.27840033 -0.2418472 -0.5480287
-0.16000046 -0.21507469 -0.16133088 -0.39779255 -0.3304402 -0.30230233 -0.19958626 -0.30171877
-0.38642302 0.20081958 -0.30844554 -0.49587995 -0.17700352 -0.18246672 0.019268822 -0.54230285
-0.23945859 -0.30201742 -0.37653017 -0.33197987 -0.3946219 -0.20993762 -0.34646747 -0.11023673
-0.0403664 0.12144818 -0.35676575 -0.30833083 -0.101013765 -0.31671786 -0.54365194 -0.23547141
-0.3427935 -0.3596087 -0.1393682 0.7494497 0.429359 -0.23410906 -0.3226401 -0.25804567
-0.49894577 -0.40899217 -0.34967896 -0.2935294 -0.23677117 -0.15776213 -0.36979806 -0.41996035
-0.08177608 -0.3008074 -0.24080843 -0.37865093 -0.44251567 -0.31805798 -0.43396372 -0.067004725
-0.2066266 0.45018563 -0.461002 -0.21367231 -0.39184764 -0.4828841 -0.06092257 0.3551158
-0.16033776 -0.035936106 -0.21531683 -0.4988513 -0.4404143 0.012877636 -0.3239989 -0.19130647
-0.24859461 -0.009449042 -0.23233165 -0.27318472 0.26831248 -0.16540438 -0.2855157 -0.27370474
-0.34235883 -0.2742519 0.59852123 -0.3810189 -0.20875748 -0.35309437 -0.15034291 -0.1637916
-0.59259707 0.018217012 -0.39866874 -0.29946834 -0.25137267 -0.23228773 -0.44466618 -0.37668118
-0.22367597 -0.41489896 -0.37464842 -0.32632503 -0.042870443 0.036968317 -0.37473854 -0.43473423
-0.35629162 -0.2593271 -0.3189441 0.11530055 -0.26600942 -0.20493405 0.013679218 -0.18734369
0.48863578 -0.32227635 -0.31181398 -0.2084635 0.09822836 -0.27658904 -0.58059967 -0.1396503
-0.25180897 -0.01168037 -0.36766702 -0.14716594 -0.30980214 -0.3375106 -0.29531357 -0.33986753
-0.21173091 -0.22663507 -0.30083227 -0.19856913 0.7716415 -0.38821873 -0.29570213 -0.21463259
-0.18313326 -0.4120046 -0.24398994 -0.56193215 -0.40755045 0.8194763 -0.25469553 -0.21512109
-0.38114125 -0.26526588 -0.18487847 -0.2875365 -0.2524588 -0.40310398 -0.16364032 0.62720233
-0.3130588 -0.2634032 -0.41936022 0.013452911 -0.50384235 -0.17893052 -0.31832424 -0.1367642
-0.27407396 -0.2992919 -0.25545666 -0.078249775 -0.29173297 -0.30030397 -0.30224475 -0.39143223
-0.50348943 -0.35793066 -0.3254963 -0.29881355 -0.16759592 -0.29250547 -0.34334078 -0.025772454
-0.19533335 -0.198887 -0.17310806 -0.4043903 -0.15831706 -0.13040026 -0.1863617 -0.011560194
00000000: 853f 38bc 985b 1dbf 9c19 a9be 097b 8cbe
00000010: 4f61 8dbe 49e8 81be 5597 77be 5507 a1be
00000020: 55b0 90be 4013 22bd db54 763e a48c a8be
00000030: cad9 9cbe 8c48 86be 0476 ca39 a0ca c8bb
00000040: cc32 b2be 526f aabe dc44 24be ff8f 5fbe
00000050: 0f26 98be 2f69 41be 0664 5abe 7037 d0bd
00000060: cb3a cdbe 026d 5abe d168 81be 5ac5 a8be
00000070: 85d9 eebe ec33 a5be 2f84 9bbe 8904 8bbe
00000080: 2fd4 93bd dd32 7ebe 626e 973c 875f a3be
00000090: 1e8c 973e 58e0 89be ee98 c1be a812 c1be
000000a0: c649 89be c1b4 83be 59a9 9b3c 7f5d 77be
000000b0: 2ab5 41be ca03 53be c8dd 4dbe 71cd 77be
000000c0: 1188 10bf 440e 84be e548 90be 4d85 7cbe
000000d0: 291e 91be d59f b6be e844 b4be 5e69 8abe
000000e0: 3ac4 5dbe 92ad c73d 697a 69be e9f2 9cbe
000000f0: c941 9abe 37b8 a1be 7f2e 89be f00e 33be
00000100: 5472 f93e c701 fdbe 3c2f bc3d 737e 90be
00000110: 1e35 c5be 7d8a 8ebe cba6 77be 9c4b 0cbf
00000120: 29d7 23be 8a3c 5cbe ec33 25be 77ab cbbe
00000130: 752f a9be 5fc7 9abe 5760 4cbe e27a 9abe
00000140: 3dd9 c5be a6a3 4d3e 93ec 9dbe fae3 fdbe
00000150: 6940 35be 8ed8 3abe a6d9 9d3c 5cd4 0abf
00000160: a234 75be 07a2 9abe 90c8 c0be 44f9 a9be
00000170: e20b cabe e3f9 56be 2f64 b1be cbc3 e1bd
00000180: 3d57 25bd d3b9 f83d 00aa b6be 8add 9dbe
00000190: 4ee0 cebd d828 a2be c62c 0bbf 6b1f 71be
000001a0: a182 afbe a21e b8be 8ab6 0ebe efdb 3f3f
000001b0: f1d4 db3e 49ba 6fbe 1531 a5be 901e 84be
000001c0: d275 ffbe 6c67 d1be 1f09 b3be 7c49 96be
000001d0: 2474 72be 658c 21be 2c56 bdbe 0b05 d7be
000001e0: 387a a7bd 6d03 9abe 7c96 76be 89de c1be
000001f0: 6a91 e2be 7fd8 a2be 7e30 debe c639 89bd
00000200: ec95 53be bb7e e63e 7408 ecbe eacc 5abe
00000210: 41a0 c8be 963c f7be f289 79bd bdd1 b53e
00000220: 952f 24be bd31 13bd 047c 5cbe 7069 ffbe
00000230: fc7d e1be b8fc 523c 2fe3 a5be d8e5 43be
00000240: 968f 7ebe 28d0 1abc 59e8 6dbe dede 8bbe
00000250: 4160 893e c45f 29be 1d2f 92be 0723 8cbe
00000260: a849 afbe bf6a 8cbe b038 193f e914 c3be
00000270: 85c4 55be c9c8 b4be 7ef3 19be fcb8 27be
00000280: 71b4 17bf d83b 953c 4f1e ccbe ea53 99be
00000290: ebb3 80be d6dc 6dbe 49ab e3be 5bdc c0be
000002a0: 500b 65be a36d d4be ebd1 bfbe 1314 a7be
000002b0: eb98 2fbd 176c 173d bbdd bfbe 7c95 debe
000002c0: db6b b6be 86c6 84be a44c a3be b222 ec3d
000002d0: 6332 88be 3bda 51be cc1e 603c 06d7 3fbe
000002e0: 782e fa3e 6801 a5be 15a6 9fbe 7577 55be
000002f0: f32b c93d 149d 8dbe 2ea2 14bf 7d00 0fbe
00000300: 1bed 80be 065f 3fbc da3e bcbe abb2 16be
00000310: 639e 9ebe 30ce acbe 5733 97be 1e03 aebe
00000320: fdcf 58be 0613 68be b006 9abe b555 4bbe
00000330: 4c8a 453f 9bc4 c6be 4566 97be a5c8 5bbe
00000340: 4987 3bbe 44f2 d2be 80d8 79be c9da 0fbf
00000350: 74aa d0be 33c9 513f 7467 82be b448 5cbe
00000360: f224 c3be eed0 87be c850 3dbe fc37 93be
00000370: 4842 81be a563 cebe 5491 27be 5590 203f
00000380: 3e49 a0be c9dc 86be 62b6 d6be 9969 5c3c
00000390: d0fb 00bf 9039 37be 65fb a2be ea0b 0cbe
000003a0: 6c53 8cbe ca3c 99be 37cb 82be 6b41 a0bd
000003b0: 065e 95be 71c1 99be d3bf 9abe ce69 c8be
000003c0: afe4 00bf b042 b7be 73a7 a6be 17fe 98be
000003d0: 449e 2bbe 47c3 95be 5dca afbe c120 d3bc
000003e0: 7705 48be 09a9 4bbe 3d43 31be 3f0c cfbe
000003f0: de1d 22be a587 05be 9ad5 3ebe f866 3dbc

linear2.bias f4 [4]
-0.3898486 -0.3861193 -0.41916806 -0.33428565
00000000: 3c9a c7be 6eb1 c5be 329d d6be 7d27 abbe
